…
          "base_uri": "https://localhost:8080/"
        },
        "id": "0CGMg1fQ3Hay",
        "outputId": "c6fc13a6-2d80-4891-a579-534258f40be8"
      },
      "execution_count": 28,
      "outputs": [
        {
          "output_type": "stream",
          "name": "stdout",
          "text": [
            "Model: \"sequential\"\n",
            "_________________________________________________________________\n",
            " Layer (type)                Output Shape              Param #   \n",
            "=================================================================\n",
            " lstm (LSTM)                 (None, 100, 50)           10400     \n",
            "                                                                 \n",
            " dropout (Dropout)           (None, 100, 50)           0         \n",
            "                                                                 \n",
            " lstm_1 (LSTM)               (None, 100, 60)           26640     \n",
            "                                                                 \n",
            " dropout_1 (Dropout)         (None, 100, 60)           0         \n",
            "                                                                 \n",
            " lstm_2 (LSTM)               (None, 100, 80)           45120     \n",
            "                                                                 \n",
            " dropout_2 (Dropout)         (None, 100, 80)           0         \n",
            "                                                                 \n",
            " lstm_3 (LSTM)               (None, 120)               96480     \n",
            "                                                                 \n",
            " dropout_3 (Dropout)         (None, 120)               0         \n",
            "                                                                 \n",
            " dense (Dense)               (None, 1)                 121       \n",
            "                                                                 \n",
            "=================================================================\n",
            "Total params: 178761 (698.29 KB)\n",
            "Trainable params: 178761 (698.29 KB)\n",
            "Non-trainable params: 0 (0.00 Byte)\n",
            "_________________________________________________________________\n"
…
